3 - Wednesday/2-945-1115/Tello-Flight-Inference/golden_model/drone_obstacle_cnn_acc_0.8571.pt (torch, 377729 bytes, 26 tensors)

architecture.conv1.weight f4 [10, 3, 3, 3]
00000000: 4b26 ed3d ae64 983d e64b 823d 3197 3c3e
00000010: ed0f 083e c13b adbd 0d88 9c3d b955 cdbd
00000020: 876d 90bd 5344 0bbc d1ec 6cbd 1035 113e
00000030: 19c9 06be a0d5 09be 893e 2dbe abe3 6fbd
00000040: 2f69 33bd 2bb8 12bd 2385 24be 1b71 0a3d
00000050: 28df 82bd fa50 1b3e a6c8 a8bd 2c13 8c3d
00000060: d6d1 8dbd 8b13 fabb d4f6 9cbd 907e b93d
00000070: 7b50 2dbe a390 01be e1cc ae3d b1b1 903d
00000080: 02a8 0b3e 4a86 57bd 3c19 80bd af94 d1bd
00000090: 297f 823d 38d8 613d b604 3e3d cc42 20bd
000000a0: 71dc b63c 4b34 343c 3f0e a03d d660 e23c
000000b0: 20ad a2bd 1554 2cbc 2068 283d 605b 01bd
000000c0: bce4 663c e3e6 6e3d c2d1 8a3d 6f7d 1ebe
000000d0: 7c2d 2dbe a555 c63d d625 9f3d a01b 0c3e
000000e0: 6fac a2bb 7735 e3bd 615b 5f3d 2dd1 6bbd
000000f0: 5605 56bd 38a6 24be 3369 e83d f2de 2bbd
00000100: 016f 093d 1b74 f33d 2e8b 2b3d 3014 24be
00000110: 0c8b abbc f1f6 0ebe 2267 a83d 5a10 a4bb
00000120: 26f4 4a3d ddc3 823d bdb3 81bd 708a 44be
00000130: 5cfd 1c3e b1e9 25be c0cc e5bc 8e17 8fbd
00000140: 493a 95bc 220a 4abd 3f5a 42be 9ece 8e3d
00000150: 4f7e e3bb fc22 90bc 9e21 2f3e ea17 103e
00000160: 5df0 1d3d 38c9 36be 7612 433e aee7 3cbd
00000170: a333 a8bd 2f50 20be 3563 47be d07a b23d
00000180: c89b 33be ea4f f9bd 83d0 253e 495b ce3d
00000190: dbeb 253e 87b4 283e 728c 813d d9fc 1d3e
000001a0: eabe c8bd 4ea0 6c3c 4233 4abe 91b0 a63d
000001b0: f606 e53d b82b 2fbe a7f3 27bd 1c59 debd
000001c0: 8c77 003e 87ee 4d3d b3bf 49be f04c 82bc
000001d0: 4114 c43d 3bb8 853d c4fe 223e 6908 86bc
000001e0: ad5b 2d3e e8bb 00be 4c2d 5c3d 5e15 34be
000001f0: fcd8 51bd fc35 243e b923 ba3d a781 3c3e
00000200: bad9 1dbd e68b 10be 0765 28be 7497 26bd
00000210: 07be 293b 5de1 10be b63b 6c3d c7b5 893d
00000220: 1e61 143e 7d76 3fbe 2160 333d 154f 133c
00000230: dd7e bcbc af91 cdbc 695f b7bd 0d73 d43d
00000240: e175 0fbe 319e a63d 4457 2b3e 33b9 6abc
00000250: 1028 2a3d 3b5a d63d a1b3 d13d fb23 1e3e
00000260: ddb6 033d 461d ce3d 8c23 06be d5fb 61bd
00000270: 9d91 633c 42aa 4abd 5911 263e 83d8 3dbe
00000280: efbb 65bd df01 06be ba78 91bb 1315 25be
00000290: 56c8 143e 134a 2b3e fd95 07be 2037 3b3e
000002a0: 152b 3c3e 3c00 dfbc a14e 75bd 143b 3cbe
000002b0: b430 2f3e e07b 983d 0808 1a3e d8ee 8abd
000002c0: b264 babd b71c 083e 5037 023d 2950 d53d
000002d0: efd2 81bd bd7d 2d3e fd51 cebb 1b47 13bb
000002e0: 67f8 b4bc 4457 0b3d cab3 183d 70ef 38be
000002f0: 5c12 afbd f0cb ff3d 587e 0dbe ce66 c3bd
00000300: edfb 833d 1c07 263e 0fa4 2e3e 593b eabd
00000310: 6e26 033e 5629 0ebe 9dbd 163e 42ed 32be
00000320: 91fc 2e3d f3dd 05be 4edb debd 4fa2 3e3c
00000330: 501f 06be 6fe8 0c3e 2eb2 07be 38b7 ff3d
00000340: 622f 80bd 5288 20be 0600 3e3e 2f22 423e
00000350: c7a5 8c3d b938 c83d af1a 05be ec8e df3d
00000360: e543 c43b c8c7 0b3d 6255 a7bc 2563 d9bd
00000370: 7b21 fd3d 9f9d 04be b5e4 353e 96c2 c3bd
00000380: 56e1 c23d bfb8 a6bc 4293 7a3d 2186 173d
00000390: d142 9139 bd3b b6bd ecc1 83bc 27f6 9bbd
000003a0: 002b 1ebe ddc2 8f3d 4c05 e3bd d1b0 103e
000003b0: 5084 193d 6600 433c 1c6f 80bd ab22 d3bd
000003c0: f346 ab3d 40e8 78bd 14bf 0f3e 2832 b0bd
000003d0: 01fa 7dbd 4566 8bbd 9296 8ebd 6de6 1ebe
000003e0: bb59 0fbc b72c 43be 1037 113e ef36 d13d
000003f0: 062b 173e bcf1 44be 6dbd c83d ca22 883d
0.115795694 0.07441078 0.06362133 0.1841705 0.13287325 -0.08458663 0.07643137 -0.10026116
-0.07052141 -0.0085001765 -0.057843033 0.14180398 -0.1316265 -0.13460398 -0.16918387 -0.05856673
-0.043801483 -0.035820168 -0.16066413 0.033799272 -0.0639022 0.15167609 -0.08241396 0.06839594
-0.06924789 -0.0076317242 -0.07664266 0.09057343 -0.16925232 -0.12652831 0.08535171 0.07065142
0.13638309 -0.052618302 -0.06254813 -0.10233437 0.0637191 0.055137843 0.04639121 -0.039126202
0.022321912 0.010998796 0.07815217 0.027634066 -0.07943177 -0.010518094 0.041114926 -0.031581283
0.01409262 0.05832566 0.067782894 -0.15477537 -0.16911882 0.09684304 0.077708885 0.13682413
-0.0049644033 -0.11094182 0.054530505 -0.057572532 -0.052251182 -0.16079032 0.1134819 -0.041960664
0.033553127 0.1188738 0.04188078 -0.16023326 -0.020940326 -0.13961388 0.08222796 -0.005006832
0.049549244 0.06385014 -0.063331105 -0.19193435 0.15331024 -0.16202427 -0.028051734 -0.069869146
-0.01821627 -0.04932607 -0.18979739 0.06973003 -0.0069425474 -0.017594807 0.17102668 0.14071622
0.038559306 -0.17850196 0.19050011 -0.046119384 -0.08212974 -0.15655588 -0.19471438 0.08714831
-0.17539895 -0.121734455 0.16192822 0.10076005 0.16203253 0.16475116 0.06325616 0.15428485
-0.09802039 0.0144425165 -0.19746116 0.08139146 0.11182968 -0.17106521 -0.04100385 -0.1085684
0.12545604 0.050276306 -0.19702034 -0.015905827 0.095741756 0.0652928 0.15917498 -0.016361432
0.16929503 -0.1257168 0.053754136 -0.17586276 -0.051232323 0.16036218 0.09088845 0.18408833
-0.03853772 -0.14115867 -0.16444789 -0.04067178 0.0025900619 -0.1414847 0.057674132 0.067241244
0.14490172 -0.18697543 0.043792848 0.008991023 -0.023009712 -0.025093881 -0.08953745 0.10373507
-0.14009811 0.08135641 0.16732508 -0.0143263815 0.041542113 0.10466429 0.102393396 0.15443413
0.032156814 0.10064177 -0.13099498 -0.055171806 0.013889697 -0.049478777 0.16217555 -0.18539624
-0.05608743 -0.13086651 -0.0044394406 -0.1612132 0.14529547 0.16727476 -0.1324081 0.18282747
0.1837581 -0.027221791 -0.05988944 -0.18381912 0.17108423 0.07445502 0.15042126 -0.06783837
-0.09101237 0.13292204 0.03179103 0.1041568 -0.063390605 0.16942497 -0.006296395 -0.0022472802
-0.022091104 0.03401877 0.037280835 -0.18060088 -0.08548424 0.1249007 -0.13817728 -0.09541093
0.064445354 0.1621365 0.17054771 -0.11437101 0.12807629 -0.13882956 0.14720769 -0.17473319
0.042721335 -0.13072948 -0.10881673 0.011635377 -0.13097882 0.13760541 -0.13251564 0.12486118
-0.062590376 -0.15677002 0.18554696 0.18958353 0.06867557 0.09776444 -0.1299846 0.10915932
0.005989539 0.034126073 -0.020426456 -0.106146134 0.123599015 -0.12950753 0.17763026 -0.09558599
0.09515636 -0.020351766 0.061175592 0.03699315 0.00027706337 -0.08898113 -0.01608368 -0.07615309
-0.1544609 0.07019589 -0.11084995 0.1412995 0.0374797 0.01190195 -0.062711924 -0.10309347
0.08363142 -0.060768366 0.14037734 -0.086033165 -0.062006 -0.06806616 -0.06962313 -0.15517588
-0.008749421 -0.19060026 0.14181161 0.10215556 0.14762506 -0.1923284 0.09801755 0.066472605

architecture.conv1.bias f4 [10]
00000000: b40b 313d 0e5e 6b3d 1573 8a3d 99a2 2abe
00000010: 359b 0e3e 0166 053e cd19 61bd 257c 08be
00000020: 6ae5 eabc 9200 7a3d
0.04322405 0.057462744 0.067602314 -0.16663589 0.13926394 0.13027193 -0.054956246 -0.13328607
-0.028673846 0.0610357

architecture.b1.weight f4 [10]
00000000: e0eb 7f3f 62fc 7e3f 713b 7d3f f48d 883f
00000010: 54ee 7e3f 5bd9 7b3f c778 7b3f b32a 813f
00000020: fd69 823f ab41 7f3f
0.9996929 0.99603856 0.98918825 1.0668321 0.9958241 0.98378533 0.98231167 1.0091156
1.0188595 0.99709576

architecture.b1.bias f4 [10]
00000000: 355f 84b9 f078 8fbc 825d 973a 392a 513a
00000010: d7c2 07bd f9ee 94bc d72c ab3a b420 efbb
00000020: ef14 633b ae48 0e3c
-0.00025247937 -0.017513722 0.0011548253 0.0007979009 -0.033144798 -0.018180357 0.0013059628 -0.0072975997
0.0034649929 0.00868432

architecture.b1.running_mean f4 [10]
00000000: f6e2 6a3c a86e 4d3d 3d7d 883c 1646 c03a
00000010: d1a4 d93d 1a02 7f3e b3fe 263e 38a8 833c
00000020: ab16 e83a c056 963d
0.014336338 0.05015436 0.01666128 0.0014669325 0.10627139 0.24903145 0.16308098 0.016071424
0.0017706951 0.07340765

architecture.b1.running_var f4 [10]
00000000: 3024 553a b399 d939 13e4 713a 18d8 dd38
00000010: 1930 e33a 9ab9 923b 9af4 353c 437b b93a
00000020: 1ba0 fd38 7f1c 563b
0.00081306975 0.0004150398 0.0009227406 0.00010578352 0.001733306 0.004477692 0.011105681 0.0014151115
0.00012093802 0.0032670794

architecture.conv2.weight f4 [20, 10, 3, 3]
00000000: cc72 b1bc 2811 bebc 2f75 1abd a328 853c
00000010: 4b17 db3d 7dff a93d cfc1 94bd dbbd 59bd
00000020: f4e8 cbbc ef8d c03b 3bcb 3e3d ff25 ddbd
00000030: 424d 29bd 192a 853d 761a aa3d 84ec 8c3d
00000040: 921e 753d 1936 213d 4c17 f4bb 8cec 213d
00000050: 9881 26bd f4a1 f6bc 33c9 7bbd 29ff 9f3d
00000060: e2fd 6f3c 2c0f a0bd f484 203d 904d 99bd
00000070: acac ea3c 65f9 53bc cc93 8b3d da6f ca3d
00000080: 6f07 5abb ae56 60bd 8d89 c0bd b526 cd3d
00000090: a9bd 5abd 2136 9b3d 1015 1fbd 8d7b 843c
000000a0: 4407 973d 9a8e 9bbd 019c 3c3d 261d 50bd
000000b0: c4a3 4b3d 3def 433c 7a31 a8bd 026d babd
000000c0: 9e18 76bd 755b 803d 1261 9c3d 5a44 853d
000000d0: d10c 423d ab2e 29bc 207b 283c 4d6d 993d
000000e0: 3e9e 83bc 22aa 2ebd a3a4 c13d 8dca 323d
000000f0: 856d 88bd 5f0c bebd 7295 903d 8f8e 97bd
00000100: f86b 3c3d 8229 9bbd 78e7 d8bd 6995 b73d
00000110: 1468 8a3d 8a55 d83c 4ce2 89bd 3e35 7f3c
00000120: 0fe5 07bd 811e 433d 98c0 473d 460b d3bd
00000130: 6bbe 44bc b5e4 6c3d 42dd 8abd c17a c4bc
00000140: 9537 273d ff14 bbbd a977 8f3b 7226 debd
00000150: 5351 ad3d 02a4 883c e1bb 443d 1386 4abc
00000160: 5014 e5bc 0e32 b0bd d82b b9bd 2914 a1bd
00000170: e3eb d13b 3771 f8bc 802f 84bd 691f e5bc
00000180: 73a0 d83c c12e 4539 0b47 93bd 25de a43d
00000190: 9854 08bd e332 6abd c152 293d bc5b e3bc
000001a0: f23b 623b 7dc3 9fbd 3ecf 31bd 87cb b2bd
000001b0: cd5b d9bc 512e f83c 01a4 393c 7210 7fbd
000001c0: 1c88 283c 82bf f5bd 0952 74bd b34e 833c
000001d0: 8867 e8bd bbf7 54bd 9ecf c5bc 6133 b6bd
000001e0: 1e13 d53c 3d47 f43c fbe6 eebd bba5 603c
000001f0: 423d 953d dc1e e5bd 3127 8f3c 1668 a5bc
00000200: 1329 b13d 1981 cd3c 7b65 b4bd 7d64 91bd
00000210: 65c8 7e3d e323 453c 7c1b af3c 7033 063d
00000220: eaaf 303c 8ccb 74bd eb33 d0bd a92a 3e3d
00000230: 176c cbbd 053e b2bd 9631 b83d ccbb d93c
00000240: 953c 6f3d d83a 083a 51b7 b93d be1e 6fbd
00000250: 51ae e1bc 10bd 933d 8121 ebbd 6af7 3cbd
00000260: 64dd 8c3d b87c a5bd ae5e afbd d36d 22bd
00000270: bd9d 923d 2ace ffbc 4504 debd ea1d 7ebc
00000280: 1804 d0bc b334 49bd 93e0 4ebd 5a7d e73b
00000290: 8c91 e03d 9ce3 3b3c 17c2 a2bd 1b32 75bd
000002a0: f996 4fbc 860b a8bc 258f e63d cc44 9c3d
000002b0: 9fc9 d5bd 5891 a1bd b5c5 a9bd 43de 8bbd
000002c0: b273 60bd 04a7 1dbd 8ca1 703d 96f8 393d
000002d0: 125c b6bd d3fa ac3d 1ef0 9cbd 72c7 b3bd
000002e0: 8c22 863d 5536 debd e951 a43d a381 a8bd
000002f0: 9707 b13c 51ed 423c 8e69 24bd c2fc 2e3d
00000300: 79d3 453c 08f7 c83d 010f 99bd fc73 f6bc
00000310: 7208 ef3d ada6 e83d 8cc4 b1bd c4f2 b53d
00000320: e2df 27bb fc62 96bd 8691 a0bc 9fa5 6ebd
00000330: f628 4d3d 1b1a 233c 919e 023d 2791 b7bd
00000340: 1b25 523d 896f cd3d cdc6 e8bc d65c d53d
00000350: f30f 34bd 1a30 d73c b9be eb3d 3848 91bd
00000360: 738d adb9 3522 75bd dff4 76bd 4268 533d
00000370: 6674 8d3b ff0e ac3d 9ca9 7bbd 076c 07bc
00000380: 785c c13c 402b 21bd 4b33 5a3d 040f b83d
00000390: e88f e5bc 7d46 bdbd 1550 893d 4879 a63d
000003a0: 2057 1abd 583c d4bc 3ea3 8a3d 55c4 90bd
000003b0: 6b53 db3b 801c 553d 3c69 57bc 3064 363d
000003c0: 514d c635 321d ec3c f9cf 3b3d 7b5a a23d
000003d0: 5f63 3cbd 0c2e 113c 2f25 7fbd e61b ebbc
000003e0: c8a5 8f3c f682 4bbd 398f 2f3d 4e1b b8bd
000003f0: abf9 5a3d c9bf 2b3c 634d 833d 7a90 adbd
-0.021661185 -0.02320154 -0.03770941 0.016254729 0.10697802 0.08300684 -0.072635286 -0.053159576
-0.024891354 0.005876295 0.046580534 -0.10798263 -0.041333444 0.0650217 0.08305828 0.06881049
0.059843607 0.039358232 -0.0074490663 0.03953223 -0.040650934 -0.030106522 -0.061471175 0.0781234
0.014647933 -0.07815394 0.039189294 -0.07485497 0.02864679 -0.012937878 0.068152994 0.09884615
-0.003326859 -0.054770164 -0.09401236 0.100171484 -0.05340353 0.07578684 -0.038838446 0.016172195
0.07374433 -0.075955585 0.046047214 -0.050809048 0.049716726 0.011958894 -0.08212562 -0.09102823
-0.06008207 0.06267444 0.07635702 0.06507178 0.047375504 -0.010326068 0.010283262 0.074915506
-0.016066667 -0.04264272 0.0945523 0.0436502 -0.06661514 -0.09279703 0.070597544 -0.07400238
0.046001405 -0.07576276 -0.10591024 0.089640446 0.067581326 0.026407976 -0.06732616 0.015576659
-0.03317743 0.047636513 0.048767656 -0.103048846 -0.01200829 0.0578353 -0.06780483 -0.023984315
0.04082449 -0.09134864 0.0043782783 -0.108471766 0.08462777 0.016679768 0.048030738 -0.012361067
-0.027963787 -0.08603297 -0.09041566 -0.07865173 0.0064062937 -0.030327423 -0.064543724 -0.02796908
0.026443696 0.00018804801 -0.07191285 0.08050183 -0.0332838 -0.057177436 0.041338686 -0.027753703
0.0034520593 -0.07800958 -0.043410532 -0.08730226 -0.026533032 0.030295523 0.0113306055 -0.062271543
0.010286357 -0.11999418 -0.059648547 0.016028738 -0.11347872 -0.051994067 -0.024146851 -0.088965185
0.026010092 0.029819125 -0.1166515 0.013711388 0.072870746 -0.111875266 0.017474743 -0.020191234
0.086504124 0.025085973 -0.08808418 -0.07099245 0.06220283 0.012032482 0.02137541 0.0327639
0.010784129 -0.05976443 -0.101661526 0.046427403 -0.09932726 -0.087032355 0.08993833 0.026578806
0.058407385 0.00051967567 0.09068168 -0.058378927 -0.02754894 0.07213795 -0.11481 -0.04613439
0.068781644 -0.08080429 -0.085629806 -0.039655518 0.071589924 -0.031226236 -0.10840658 -0.015510062
-0.025392577 -0.049122524 -0.05050714 0.0070645036 0.10965261 0.0114678405 -0.07947176 -0.059862237
-0.012670272 -0.020513307 0.112577714 0.076303095 -0.10438847 -0.0788905 -0.08289663 -0.068295024
-0.054797836 -0.038489357 0.058747813 0.045403086 -0.0890428 0.084462784 -0.07662986 -0.087782755
0.06549558 -0.10850207 0.080234356 -0.08227851 0.021610064 0.011897401 -0.040139727 0.042721517
0.012074345 0.098127425 -0.07473565 -0.030084603 0.11671533 0.11359916 -0.086800665 0.088841945
-0.0025615622 -0.073430985 -0.019600641 -0.058263417 0.05008789 0.0099549545 0.031889502 -0.089632325
0.051304918 0.10031039 -0.028415108 0.10418098 -0.043960523 0.026268054 0.11510987 -0.07093853
-0.0003310252 -0.059847075 -0.06029212 0.0516131 0.0043168543 0.08401298 -0.06144105 -0.008265502
0.023603663 -0.039347887 0.053271573 0.08987239 -0.028022721 -0.0924196 0.067047276 0.08128601
-0.037680745 -0.02590768 0.06769417 -0.07068697 0.006693294 0.052029133 -0.013147648 0.04452914
1.4774652e-06 0.028822515 0.045852635 0.07927414 -0.045993205 0.008861076 -0.06229132 -0.028699826
0.017535105 -0.04968544 0.042861197 -0.08989583 0.05346076 0.010482737 0.06411245 -0.08474822

architecture.conv2.bias f4 [20]
00000000: 759c 553d f72a 1fbd 3ff4 823c 511c 2fbd
00000010: 2208 0cbd 2d9c c5bd abb6 a93d 6ff7 c2bd
00000020: f969 7ebd c190 0ebd 5a17 663c 4a1a 12bd
00000030: 248d 6f3d ee63 26bc b3d0 bc3d 0b85 ffbd
00000040: b895 8fbd 4369 0fbd c882 293d 50a3 3b3a
0.052151162 -0.038859334 0.015985606 -0.042751614 -0.034187444 -0.09648929 0.08286794 -0.095198505
-0.062112782 -0.034806017 0.014043653 -0.035669602 0.05848421 -0.010155661 0.09219494 -0.12476548
-0.070109785 -0.035012495 0.04138449 0.00071578193

architecture.b2.weight f4 [20]
00000000: 8424 713f fb56 733f 9848 6c3f 6310 6d3f
00000010: ac0b 6f3f 7fd8 6f3f cec1 703f c8c7 6b3f
00000020: 2382 6c3f f069 683f 31e9 693f 4b49 6d3f
00000030: c0a8 6c3f 6bb4 733f 02d8 693f 11c8 713f
00000040: be43 6a3f 6be1 6c3f 4c74 713f f4bf 743f
0.94196343 0.95054597 0.9229827 0.9260313 0.93377185 0.9368972 0.9404572 0.92101717
0.9238607 0.9078665 0.91371447 0.9268996 0.9244499 0.9519717 0.91345227 0.944459
0.91509616 0.9253146 0.9431808 0.956054

architecture.b2.bias f4 [20]
00000000: 8d53 823c 3c81 6cbc 6c1c 82bb 318d da3c
00000010: 3867 a43c 0842 823c d703 9dba c7ff 803c
00000020: 4a91 f4ba 38c1 c33c bbf3 bd3c 10f8 91bb
00000030: 8405 bdbb 2be1 c93c d5f1 043c 3771 21bc
00000040: a71f dd3c cbfb b03c 172f fdbb 9137 a03c
0.01590898 -0.014435109 -0.0039706733 0.026678653 0.02006875 0.015900627 -0.0011979294 0.015746964
-0.0018659022 0.023895845 0.023187509 -0.00445462 -0.00576848 0.024643501 0.008114298 -0.009853653
0.026992632 0.02160444 -0.007726561 0.019557746

architecture.b2.running_mean f4 [20]
00000000: ab3a 843e cc1e ba3e 6f21 8e3e 6dd6 643e
00000010: ea06 3d3e 533e 343e c4c5 af3e ec57 463e
00000020: cfa8 b13e 72f6 583e b7ee 9a3e 1fc8 a63e
00000030: 6d0e b93e b7f6 ab3e c862 cc3e 463f 843e
00000040: 945b 583e 950d 883e da8b be3e ee1b d23e
0.2582601 0.3635162 0.27759883 0.22347422 0.18459669 0.176019 0.3433057 0.19369477
0.34699103 0.21187761 0.3026025 0.32574555 0.36143818 0.33586666 0.39919114 0.25829524
0.21128684 0.26572862 0.37216073 0.41036934

architecture.b2.running_var f4 [20]
00000000: 032b 573e 7406 f13d 9f68 813e eed3 323e
00000010: a58a 073e 2264 e83d fd19 553e ddd8 483e
00000020: 1462 0c3f 9fff 843e 979d ad3e 3807 e33e
00000030: bb3d cf3e d616 5c3e d42a 9a3e 0681 ff3e
00000040: 4f4c 763e 9e3e 463e c004 543e 0e1c cd3e
0.21012501 0.11768809 0.25275132 0.17463657 0.13236482 0.11347224 0.20810695 0.19613977
0.54837155 0.25976273 0.33909294 0.44341445 0.40476784 0.21493086 0.301108 0.49903125
0.24052547 0.19359824 0.20704937 0.40060467

architecture.fc1.weight f4 [1, 90480]
00000000: 1e16 2e3c a14f 763c 0a5e 763c af80 e638
00000010: 4085 4f3c 85ca bb3b 5b1e 33ba 6dd1 893b
00000020: 559b a23b 0970 b63a e67f cebb df47 23bb
00000030: 03b0 f73b f10e 96bb ffc8 be3b 3b88 bc3a
00000040: fe44 8b3b 0282 003c abcf 453c b9ce 913b
00000050: 8046 df3a 2b18 733c bb79 313c 6fdd 0a3c
00000060: d382 cb3b 7688 233c 8cf5 463c ef59 d53c
00000070: e365 773c 142e e83b 66e4 ca3c 6235 0e3b
00000080: 94a5 823c bd4f 783c 4562 353c 7b39 883c
00000090: 28ae cd39 a79f 6e3b 63c2 f53a 8726 03b9
000000a0: 9914 983a eca2 6abc 5121 4fba ed01 25bc
000000b0: 73f8 23bb 9def 6dba 4802 b5bb 0b8b 9a3b
000000c0: c495 09bb b645 e03b 90c6 80bb 3ebf 05bb
000000d0: 8d3d 8e3c c2a9 403c 2d75 123c 5639 d73b
000000e0: 6e60 b2ba 0a4f 6a3b ac78 4b3c 52cc 593c
000000f0: bc58 073c 90c9 893b e205 613b d63e 903b
00000100: af24 e739 7370 10bc 19c8 e6bb f8de 983a
00000110: 0002 32bc c175 23bc 0354 113c 9fb5 3c3a
00000120: e2fb e93b 5ae8 fd3a acf6 683c 8ffc a53c
00000130: ff6a 333c 2d88 293c dc07 263b a9ce 883c
00000140: 9b7c 213c 3f80 153c eeb4 8a3c 5881 3f3c
00000150: ddc3 463c 6fdb 333c 8d7e 513c a18e 923c
00000160: 27b3 8e3c 4052 7d3c 57f8 9e3c bbc3 c23c
00000170: e0f7 933c 2287 b53c e49c 3b3c 9f26 8dbb
00000180: ed75 6e3b 0653 593b e4a1 06bc ffe6 863b
00000190: 85ce cfbb 5d0a 8abb e368 54b9 6343 1cbb
000001a0: 0250 ee3a bfe0 8b3a 3278 2abc c31b 39bc
000001b0: 6ca2 9abb 422a bfbb a24b a53b 9816 e73a
000001c0: 703d 6f3c 0c2d dd3a cc82 963c cb39 623c
000001d0: 292d ea3b ebb0 183c e954 133b be39 abba
000001e0: 4d4b 6f38 50a1 cf3b 5f6e e53b 7f16 ea3a
000001f0: 215d 64bb 739f e3bb 904c 2c3b 40fa dbbb
00000200: df13 08ba 9ebe e13b 92f5 a43b 532d daba
00000210: dbf9 063b b58a 9f3c b94b da3c d43d 923c
00000220: 869e 453c bbc4 e23b c2c8 293c abdd 933b
00000230: 922e 683b 30f6 483c 877f fb3a bbf7 ab3b
00000240: 9823 a53b 6cf7 bf3b 8b47 863a 241e 893c
00000250: 0b7c 8c3b 7535 843b 123f dbbb 7056 873b
00000260: 8f3b a7bb 68d2 2ebc 8c9d 603c f16a 813c
00000270: 74ff 7f3c 5427 843c 6626 0fbc 14a1 313b
00000280: af76 1fbc da54 6fbb 257a 3b3b af6a 703b
00000290: f561 59bb 2724 883a ca56 4a3b 6d03 8139
000002a0: f4bb e53b 38af 3dbb 291b 0e3b da57 253c
000002b0: 8d81 3b3c 200e 543b 43a5 d53b de44 5a3c
000002c0: 6ac2 33bc 0765 c0ba ccf7 cd3a adc5 7339
000002d0: 0b0a bc3b fb25 0c3b 0033 173c d484 1c3b
000002e0: b0ce 7c3a 3ab4 433c 9bca 003a a1eb d9b9
000002f0: f527 813c 201d e43b 8f34 e33b 3a14 993a
00000300: bd1d 723c b024 a73c a270 8b3c 7f10 523c
00000310: bc1b 773c e218 03bb 8b00 c83b 9362 873c
00000320: 5047 4c3c 38d3 5f3c 3e31 5aba 53ad 3a3c
00000330: 8736 16ba d040 233b b749 ff3b 5daf c5bb
00000340: eba3 003b fc7b 49bc 799c cabb 1f84 34bb
00000350: ee80 353b 6ebf 093c bf60 8c3b cc06 8a3b
00000360: e0f9 a93c 7600 063c 328f 7b3b 6443 84bb
00000370: ec45 4a3c b772 9c3b a931 1a3c 3fb0 51bb
00000380: f149 bb3b 860c 89bb c636 8c3b 866b adbb
00000390: 4e25 33bb e0a6 d6bb 6e94 b23b eba9 b23b
000003a0: 93c8 41ba dcbf 2e39 3a75 9a3a 5428 533c
000003b0: 25bf 743c 14df 5e3a de2c 963b c11d 8f3b
000003c0: 6aef 703b ce0f 2f3c ea42 1c3c a17a 3e3c
000003d0: f728 373c 16f4 8dbb 6e3d dc39 c276 44bb
000003e0: 8e7a 723b 2477 863b 7c36 93ba 10fa b0ba
000003f0: 55cf 443c 3808 8b3c 5ac9 263c fedf c93b
0.01062539 0.015033633 0.015037069 0.00010991224 0.012666047 0.0057309293 -0.00068328314 0.0042058737
0.0049623647 0.0013918887 -0.006301868 -0.0024914665 0.007558824 -0.004579418 0.0058223004 0.0014383862
0.004250168 0.007843496 0.012073438 0.004449692 0.001703456 0.014837305 0.010832245 0.008475645
0.006210664 0.009981265 0.012143504 0.02604386 0.015099975 0.007085571 0.024767112 0.00216993
0.015948094 0.01515573 0.011070793 0.016628971 0.00039230403 0.0036411078 0.0018749948 -0.00012507486
0.0011602818 -0.01432107 -0.0007901388 -0.01007126 -0.0025019913 -0.00090765377 -0.0055239536 0.0047162822
-0.0020993808 0.0068442477 -0.0039299205 -0.0020408179 0.017363334 0.011759223 0.00893907 0.0065681143
-0.001360906 0.0035752677 0.012418907 0.013293343 0.008260902 0.0042049363 0.0034335782 0.004402022
0.00044087085 -0.0088158725 -0.0070428965 0.001166313 -0.010864735 -0.009976805 0.008870128 0.00071986945
0.0071406225 0.0019371614 0.014218967 0.02026203 0.010950803 0.010347408 0.0025334274 0.016700106
0.009856368 0.0091248145 0.016931977 0.011688553 0.012131658 0.01097761 0.01278652 0.017890276
0.01741941 0.015461504 0.019405527 0.023774972 0.018062532 0.022159163 0.01145098 -0.0043075825
0.0036386207 0.0033161058 -0.008217309 0.0041168923 -0.0063417577 -0.004212661 -0.00020256969 -0.0023843877
0.0018181803 0.0010671838 -0.010404633 -0.011298123 -0.004719069 -0.005833895 0.0050444165 0.0017630635
0.01460205 0.0016874387 0.018372916 0.013807724 0.007146497 0.009319524 0.002248103 -0.0013063473
5.705217e-05 0.0063363686 0.0070016827 0.0017859488 -0.0034845548 -0.006946498 0.0026290752 -0.0067131817
-0.00051909493 0.0068891784 0.005034157 -0.0016645588 0.0020595703 0.01947532 0.026647436 0.017851748
0.012061721 0.0069204248 0.010362806 0.004512509 0.0035428149 0.012265727 0.0019187786 0.0052480376
0.0050396435 0.0058583524 0.001024471 0.016738005 0.004287248 0.004034693 -0.006690868 0.004130177
-0.0051035355 -0.010670282 0.013709437 0.015798064 0.01562487 0.016132034 -0.008737182 0.0027104067
-0.009732886 -0.0036519081 0.002860674 0.0036684682 -0.003316996 0.0010386751 0.0030874484 0.0002460735
0.007010931 -0.002894355 0.002168367 0.010091746 0.0114444615 0.0032357052 0.006519945 0.013322083
-0.010971645 -0.0014678546 0.0015714108 0.00023247926 0.005738502 0.0021384943 0.009228468 0.0023882883
0.0009643836 0.011944825 0.0004913003 -0.00041565023 0.015766123 0.00696148 0.0069337557 0.0011679002
0.014777598 0.020403236 0.017021481 0.012821316 0.015082296 -0.0020003845 0.0061035804 0.016526496
0.012468174 0.013661198 -0.00083233777 0.011393863 -0.0005730171 0.0024910457 0.00779077 -0.006032868
0.0019628953 -0.012297627 -0.006183204 -0.002754457 0.0027695256 0.008407457 0.004283994 0.004212236
0.020749032 0.008178821 0.0038384912 -0.004036354 0.012345772 0.0047744173 0.009411254 -0.003199592
0.0057156016 -0.004182401 0.0042789904 -0.005292359 -0.0027335468 -0.006550655 0.005449823 0.0054523847
-0.00073922536 0.00016665406 0.0011784204 0.012888033 0.0149381505 0.0008501869 0.0045829853 0.0043675606
0.0036763796 0.0106849205 0.009537438 0.011625917 0.0111792 -0.004332076 0.0004200744 -0.0029978012
0.0036999318 0.004103558 -0.0011231448 -0.0013502259 0.012012322 0.016971692 0.010179842 0.006160735

conv1.weight f4 [10, 3, 3, 3]
00000000: 4b26 ed3d ae64 983d e64b 823d 3197 3c3e
00000010: ed0f 083e c13b adbd 0d88 9c3d b955 cdbd
00000020: 876d 90bd 5344 0bbc d1ec 6cbd 1035 113e
00000030: 19c9 06be a0d5 09be 893e 2dbe abe3 6fbd
00000040: 2f69 33bd 2bb8 12bd 2385 24be 1b71 0a3d
00000050: 28df 82bd fa50 1b3e a6c8 a8bd 2c13 8c3d
00000060: d6d1 8dbd 8b13 fabb d4f6 9cbd 907e b93d
00000070: 7b50 2dbe a390 01be e1cc ae3d b1b1 903d
00000080: 02a8 0b3e 4a86 57bd 3c19 80bd af94 d1bd
00000090: 297f 823d 38d8 613d b604 3e3d cc42 20bd
000000a0: 71dc b63c 4b34 343c 3f0e a03d d660 e23c
000000b0: 20ad a2bd 1554 2cbc 2068 283d 605b 01bd
000000c0: bce4 663c e3e6 6e3d c2d1 8a3d 6f7d 1ebe
000000d0: 7c2d 2dbe a555 c63d d625 9f3d a01b 0c3e
000000e0: 6fac a2bb 7735 e3bd 615b 5f3d 2dd1 6bbd
000000f0: 5605 56bd 38a6 24be 3369 e83d f2de 2bbd
00000100: 016f 093d 1b74 f33d 2e8b 2b3d 3014 24be
00000110: 0c8b abbc f1f6 0ebe 2267 a83d 5a10 a4bb
00000120: 26f4 4a3d ddc3 823d bdb3 81bd 708a 44be
00000130: 5cfd 1c3e b1e9 25be c0cc e5bc 8e17 8fbd
00000140: 493a 95bc 220a 4abd 3f5a 42be 9ece 8e3d
00000150: 4f7e e3bb fc22 90bc 9e21 2f3e ea17 103e
00000160: 5df0 1d3d 38c9 36be 7612 433e aee7 3cbd
00000170: a333 a8bd 2f50 20be 3563 47be d07a b23d
00000180: c89b 33be ea4f f9bd 83d0 253e 495b ce3d
00000190: dbeb 253e 87b4 283e 728c 813d d9fc 1d3e
000001a0: eabe c8bd 4ea0 6c3c 4233 4abe 91b0 a63d
000001b0: f606 e53d b82b 2fbe a7f3 27bd 1c59 debd
000001c0: 8c77 003e 87ee 4d3d b3bf 49be f04c 82bc
000001d0: 4114 c43d 3bb8 853d c4fe 223e 6908 86bc
000001e0: ad5b 2d3e e8bb 00be 4c2d 5c3d 5e15 34be
000001f0: fcd8 51bd fc35 243e b923 ba3d a781 3c3e
00000200: bad9 1dbd e68b 10be 0765 28be 7497 26bd
00000210: 07be 293b 5de1 10be b63b 6c3d c7b5 893d
00000220: 1e61 143e 7d76 3fbe 2160 333d 154f 133c
00000230: dd7e bcbc af91 cdbc 695f b7bd 0d73 d43d
00000240: e175 0fbe 319e a63d 4457 2b3e 33b9 6abc
00000250: 1028 2a3d 3b5a d63d a1b3 d13d fb23 1e3e
00000260: ddb6 033d 461d ce3d 8c23 06be d5fb 61bd
00000270: 9d91 633c 42aa 4abd 5911 263e 83d8 3dbe
00000280: efbb 65bd df01 06be ba78 91bb 1315 25be
00000290: 56c8 143e 134a 2b3e fd95 07be 2037 3b3e
000002a0: 152b 3c3e 3c00 dfbc a14e 75bd 143b 3cbe
000002b0: b430 2f3e e07b 983d 0808 1a3e d8ee 8abd
000002c0: b264 babd b71c 083e 5037 023d 2950 d53d
000002d0: efd2 81bd bd7d 2d3e fd51 cebb 1b47 13bb
000002e0: 67f8 b4bc 4457 0b3d cab3 183d 70ef 38be
000002f0: 5c12 afbd f0cb ff3d 587e 0dbe ce66 c3bd
00000300: edfb 833d 1c07 263e 0fa4 2e3e 593b eabd
00000310: 6e26 033e 5629 0ebe 9dbd 163e 42ed 32be
00000320: 91fc 2e3d f3dd 05be 4edb debd 4fa2 3e3c
00000330: 501f 06be 6fe8 0c3e 2eb2 07be 38b7 ff3d
00000340: 622f 80bd 5288 20be 0600 3e3e 2f22 423e
00000350: c7a5 8c3d b938 c83d af1a 05be ec8e df3d
00000360: e543 c43b c8c7 0b3d 6255 a7bc 2563 d9bd
00000370: 7b21 fd3d 9f9d 04be b5e4 353e 96c2 c3bd
00000380: 56e1 c23d bfb8 a6bc 4293 7a3d 2186 173d
00000390: d142 9139 bd3b b6bd ecc1 83bc 27f6 9bbd
000003a0: 002b 1ebe ddc2 8f3d 4c05 e3bd d1b0 103e
000003b0: 5084 193d 6600 433c 1c6f 80bd ab22 d3bd
000003c0: f346 ab3d 40e8 78bd 14bf 0f3e 2832 b0bd
000003d0: 01fa 7dbd 4566 8bbd 9296 8ebd 6de6 1ebe
000003e0: bb59 0fbc b72c 43be 1037 113e ef36 d13d
000003f0: 062b 173e bcf1 44be 6dbd c83d ca22 883d
0.115795694 0.07441078 0.06362133 0.1841705 0.13287325 -0.08458663 0.07643137 -0.10026116
-0.07052141 -0.0085001765 -0.057843033 0.14180398 -0.1316265 -0.13460398 -0.16918387 -0.05856673
-0.043801483 -0.035820168 -0.16066413 0.033799272 -0.0639022 0.15167609 -0.08241396 0.06839594
-0.06924789 -0.0076317242 -0.07664266 0.09057343 -0.16925232 -0.12652831 0.08535171 0.07065142
0.13638309 -0.052618302 -0.06254813 -0.10233437 0.0637191 0.055137843 0.04639121 -0.039126202
0.022321912 0.010998796 0.07815217 0.027634066 -0.07943177 -0.010518094 0.041114926 -0.031581283
0.01409262 0.05832566 0.067782894 -0.15477537 -0.16911882 0.09684304 0.077708885 0.13682413
-0.0049644033 -0.11094182 0.054530505 -0.057572532 -0.052251182 -0.16079032 0.1134819 -0.041960664
0.033553127 0.1188738 0.04188078 -0.16023326 -0.020940326 -0.13961388 0.08222796 -0.005006832
0.049549244 0.06385014 -0.063331105 -0.19193435 0.15331024 -0.16202427 -0.028051734 -0.069869146
-0.01821627 -0.04932607 -0.18979739 0.06973003 -0.0069425474 -0.017594807 0.17102668 0.14071622
0.038559306 -0.17850196 0.19050011 -0.046119384 -0.08212974 -0.15655588 -0.19471438 0.08714831
-0.17539895 -0.121734455 0.16192822 0.10076005 0.16203253 0.16475116 0.06325616 0.15428485
-0.09802039 0.0144425165 -0.19746116 0.08139146 0.11182968 -0.17106521 -0.04100385 -0.1085684
0.12545604 0.050276306 -0.19702034 -0.015905827 0.095741756 0.0652928 0.15917498 -0.016361432
0.16929503 -0.1257168 0.053754136 -0.17586276 -0.051232323 0.16036218 0.09088845 0.18408833
-0.03853772 -0.14115867 -0.16444789 -0.04067178 0.0025900619 -0.1414847 0.057674132 0.067241244
0.14490172 -0.18697543 0.043792848 0.008991023 -0.023009712 -0.025093881 -0.08953745 0.10373507
-0.14009811 0.08135641 0.16732508 -0.0143263815 0.041542113 0.10466429 0.102393396 0.15443413
0.032156814 0.10064177 -0.13099498 -0.055171806 0.013889697 -0.049478777 0.16217555 -0.18539624
-0.05608743 -0.13086651 -0.0044394406 -0.1612132 0.14529547 0.16727476 -0.1324081 0.18282747
0.1837581 -0.027221791 -0.05988944 -0.18381912 0.17108423 0.07445502 0.15042126 -0.06783837
-0.09101237 0.13292204 0.03179103 0.1041568 -0.063390605 0.16942497 -0.006296395 -0.0022472802
-0.022091104 0.03401877 0.037280835 -0.18060088 -0.08548424 0.1249007 -0.13817728 -0.09541093
0.064445354 0.1621365 0.17054771 -0.11437101 0.12807629 -0.13882956 0.14720769 -0.17473319
0.042721335 -0.13072948 -0.10881673 0.011635377 -0.13097882 0.13760541 -0.13251564 0.12486118
-0.062590376 -0.15677002 0.18554696 0.18958353 0.06867557 0.09776444 -0.1299846 0.10915932
0.005989539 0.034126073 -0.020426456 -0.106146134 0.123599015 -0.12950753 0.17763026 -0.09558599
0.09515636 -0.020351766 0.061175592 0.03699315 0.00027706337 -0.08898113 -0.01608368 -0.07615309
-0.1544609 0.07019589 -0.11084995 0.1412995 0.0374797 0.01190195 -0.062711924 -0.10309347
0.08363142 -0.060768366 0.14037734 -0.086033165 -0.062006 -0.06806616 -0.06962313 -0.15517588
-0.008749421 -0.19060026 0.14181161 0.10215556 0.14762506 -0.1923284 0.09801755 0.066472605

conv1.bias f4 [10]
00000000: b40b 313d 0e5e 6b3d 1573 8a3d 99a2 2abe
00000010: 359b 0e3e 0166 053e cd19 61bd 257c 08be
00000020: 6ae5 eabc 9200 7a3d
0.04322405 0.057462744 0.067602314 -0.16663589 0.13926394 0.13027193 -0.054956246 -0.13328607
-0.028673846 0.0610357

b1.weight f4 [10]
00000000: e0eb 7f3f 62fc 7e3f 713b 7d3f f48d 883f
00000010: 54ee 7e3f 5bd9 7b3f c778 7b3f b32a 813f
00000020: fd69 823f ab41 7f3f
0.9996929 0.99603856 0.98918825 1.0668321 0.9958241 0.98378533 0.98231167 1.0091156
1.0188595 0.99709576

b1.bias f4 [10]
00000000: 355f 84b9 f078 8fbc 825d 973a 392a 513a
00000010: d7c2 07bd f9ee 94bc d72c ab3a b420 efbb
00000020: ef14 633b ae48 0e3c
-0.00025247937 -0.017513722 0.0011548253 0.0007979009 -0.033144798 -0.018180357 0.0013059628 -0.0072975997
0.0034649929 0.00868432

b1.running_mean f4 [10]
00000000: f6e2 6a3c a86e 4d3d 3d7d 883c 1646 c03a
00000010: d1a4 d93d 1a02 7f3e b3fe 263e 38a8 833c
00000020: ab16 e83a c056 963d
0.014336338 0.05015436 0.01666128 0.0014669325 0.10627139 0.24903145 0.16308098 0.016071424
0.0017706951 0.07340765

b1.running_var f4 [10]
00000000: 3024 553a b399 d939 13e4 713a 18d8 dd38
00000010: 1930 e33a 9ab9 923b 9af4 353c 437b b93a
00000020: 1ba0 fd38 7f1c 563b
0.00081306975 0.0004150398 0.0009227406 0.00010578352 0.001733306 0.004477692 0.011105681 0.0014151115
0.00012093802 0.0032670794

conv2.weight f4 [20, 10, 3, 3]
00000000: cc72 b1bc 2811 bebc 2f75 1abd a328 853c
00000010: 4b17 db3d 7dff a93d cfc1 94bd dbbd 59bd
00000020: f4e8 cbbc ef8d c03b 3bcb 3e3d ff25 ddbd
00000030: 424d 29bd 192a 853d 761a aa3d 84ec 8c3d
00000040: 921e 753d 1936 213d 4c17 f4bb 8cec 213d
00000050: 9881 26bd f4a1 f6bc 33c9 7bbd 29ff 9f3d
00000060: e2fd 6f3c 2c0f a0bd f484 203d 904d 99bd
00000070: acac ea3c 65f9 53bc cc93 8b3d da6f ca3d
00000080: 6f07 5abb ae56 60bd 8d89 c0bd b526 cd3d
00000090: a9bd 5abd 2136 9b3d 1015 1fbd 8d7b 843c
000000a0: 4407 973d 9a8e 9bbd 019c 3c3d 261d 50bd
000000b0: c4a3 4b3d 3def 433c 7a31 a8bd 026d babd
000000c0: 9e18 76bd 755b 803d 1261 9c3d 5a44 853d
000000d0: d10c 423d ab2e 29bc 207b 283c 4d6d 993d
000000e0: 3e9e 83bc 22aa 2ebd a3a4 c13d 8dca 323d
000000f0: 856d 88bd 5f0c bebd 7295 903d 8f8e 97bd
00000100: f86b 3c3d 8229 9bbd 78e7 d8bd 6995 b73d
00000110: 1468 8a3d 8a55 d83c 4ce2 89bd 3e35 7f3c
00000120: 0fe5 07bd 811e 433d 98c0 473d 460b d3bd
00000130: 6bbe 44bc b5e4 6c3d 42dd 8abd c17a c4bc
00000140: 9537 273d ff14 bbbd a977 8f3b 7226 debd
00000150: 5351 ad3d 02a4 883c e1bb 443d 1386 4abc
00000160: 5014 e5bc 0e32 b0bd d82b b9bd 2914 a1bd
00000170: e3eb d13b 3771 f8bc 802f 84bd 691f e5bc
00000180: 73a0 d83c c12e 4539 0b47 93bd 25de a43d
00000190: 9854 08bd e332 6abd c152 293d bc5b e3bc
000001a0: f23b 623b 7dc3 9fbd 3ecf 31bd 87cb b2bd
000001b0: cd5b d9bc 512e f83c 01a4 393c 7210 7fbd
000001c0: 1c88 283c 82bf f5bd 0952 74bd b34e 833c
000001d0: 8867 e8bd bbf7 54bd 9ecf c5bc 6133 b6bd
000001e0: 1e13 d53c 3d47 f43c fbe6 eebd bba5 603c
000001f0: 423d 953d dc1e e5bd 3127 8f3c 1668 a5bc
00000200: 1329 b13d 1981 cd3c 7b65 b4bd 7d64 91bd
00000210: 65c8 7e3d e323 453c 7c1b af3c 7033 063d
00000220: eaaf 303c 8ccb 74bd eb33 d0bd a92a 3e3d
00000230: 176c cbbd 053e b2bd 9631 b83d ccbb d93c
00000240: 953c 6f3d d83a 083a 51b7 b93d be1e 6fbd
00000250: 51ae e1bc 10bd 933d 8121 ebbd 6af7 3cbd
00000260: 64dd 8c3d b87c a5bd ae5e afbd d36d 22bd
00000270: bd9d 923d 2ace ffbc 4504 debd ea1d 7ebc
00000280: 1804 d0bc b334 49bd 93e0 4ebd 5a7d e73b
00000290: 8c91 e03d 9ce3 3b3c 17c2 a2bd 1b32 75bd
000002a0: f996 4fbc 860b a8bc 258f e63d cc44 9c3d
000002b0: 9fc9 d5bd 5891 a1bd b5c5 a9bd 43de 8bbd
000002c0: b273 60bd 04a7 1dbd 8ca1 703d 96f8 393d
000002d0: 125c b6bd d3fa ac3d 1ef0 9cbd 72c7 b3bd
000002e0: 8c22 863d 5536 debd e951 a43d a381 a8bd
000002f0: 9707 b13c 51ed 423c 8e69 24bd c2fc 2e3d
00000300: 79d3 453c 08f7 c83d 010f 99bd fc73 f6bc
00000310: 7208 ef3d ada6 e83d 8cc4 b1bd c4f2 b53d
00000320: e2df 27bb fc62 96bd 8691 a0bc 9fa5 6ebd
00000330: f628 4d3d 1b1a 233c 919e 023d 2791 b7bd
00000340: 1b25 523d 896f cd3d cdc6 e8bc d65c d53d
00000350: f30f 34bd 1a30 d73c b9be eb3d 3848 91bd
00000360: 738d adb9 3522 75bd dff4 76bd 4268 533d
00000370: 6674 8d3b ff0e ac3d 9ca9 7bbd 076c 07bc
00000380: 785c c13c 402b 21bd 4b33 5a3d 040f b83d
00000390: e88f e5bc 7d46 bdbd 1550 893d 4879 a63d
000003a0: 2057 1abd 583c d4bc 3ea3 8a3d 55c4 90bd
000003b0: 6b53 db3b 801c 553d 3c69 57bc 3064 363d
000003c0: 514d c635 321d ec3c f9cf 3b3d 7b5a a23d
000003d0: 5f63 3cbd 0c2e 113c 2f25 7fbd e61b ebbc
000003e0: c8a5 8f3c f682 4bbd 398f 2f3d 4e1b b8bd
000003f0: abf9 5a3d c9bf 2b3c 634d 833d 7a90 adbd
-0.021661185 -0.02320154 -0.03770941 0.016254729 0.10697802 0.08300684 -0.072635286 -0.053159576
-0.024891354 0.005876295 0.046580534 -0.10798263 -0.041333444 0.0650217 0.08305828 0.06881049
0.059843607 0.039358232 -0.0074490663 0.03953223 -0.040650934 -0.030106522 -0.061471175 0.0781234
0.014647933 -0.07815394 0.039189294 -0.07485497 0.02864679 -0.012937878 0.068152994 0.09884615
-0.003326859 -0.054770164 -0.09401236 0.100171484 -0.05340353 0.07578684 -0.038838446 0.016172195
0.07374433 -0.075955585 0.046047214 -0.050809048 0.049716726 0.011958894 -0.08212562 -0.09102823
-0.06008207 0.06267444 0.07635702 0.06507178 0.047375504 -0.010326068 0.010283262 0.074915506
-0.016066667 -0.04264272 0.0945523 0.0436502 -0.06661514 -0.09279703 0.070597544 -0.07400238
0.046001405 -0.07576276 -0.10591024 0.089640446 0.067581326 0.026407976 -0.06732616 0.015576659
-0.03317743 0.047636513 0.048767656 -0.103048846 -0.01200829 0.0578353 -0.06780483 -0.023984315
0.04082449 -0.09134864 0.0043782783 -0.108471766 0.08462777 0.016679768 0.048030738 -0.012361067
-0.027963787 -0.08603297 -0.09041566 -0.07865173 0.0064062937 -0.030327423 -0.064543724 -0.02796908
0.026443696 0.00018804801 -0.07191285 0.08050183 -0.0332838 -0.057177436 0.041338686 -0.027753703
0.0034520593 -0.07800958 -0.043410532 -0.08730226 -0.026533032 0.030295523 0.0113306055 -0.062271543
0.010286357 -0.11999418 -0.059648547 0.016028738 -0.11347872 -0.051994067 -0.024146851 -0.088965185
0.026010092 0.029819125 -0.1166515 0.013711388 0.072870746 -0.111875266 0.017474743 -0.020191234
0.086504124 0.025085973 -0.08808418 -0.07099245 0.06220283 0.012032482 0.02137541 0.0327639
0.010784129 -0.05976443 -0.101661526 0.046427403 -0.09932726 -0.087032355 0.08993833 0.026578806
0.058407385 0.00051967567 0.09068168 -0.058378927 -0.02754894 0.07213795 -0.11481 -0.04613439
0.068781644 -0.08080429 -0.085629806 -0.039655518 0.071589924 -0.031226236 -0.10840658 -0.015510062
-0.025392577 -0.049122524 -0.05050714 0.0070645036 0.10965261 0.0114678405 -0.07947176 -0.059862237
-0.012670272 -0.020513307 0.112577714 0.076303095 -0.10438847 -0.0788905 -0.08289663 -0.068295024
-0.054797836 -0.038489357 0.058747813 0.045403086 -0.0890428 0.084462784 -0.07662986 -0.087782755
0.06549558 -0.10850207 0.080234356 -0.08227851 0.021610064 0.011897401 -0.040139727 0.042721517
0.012074345 0.098127425 -0.07473565 -0.030084603 0.11671533 0.11359916 -0.086800665 0.088841945
-0.0025615622 -0.073430985 -0.019600641 -0.058263417 0.05008789 0.0099549545 0.031889502 -0.089632325
0.051304918 0.10031039 -0.028415108 0.10418098 -0.043960523 0.026268054 0.11510987 -0.07093853
-0.0003310252 -0.059847075 -0.06029212 0.0516131 0.0043168543 0.08401298 -0.06144105 -0.008265502
0.023603663 -0.039347887 0.053271573 0.08987239 -0.028022721 -0.0924196 0.067047276 0.08128601
-0.037680745 -0.02590768 0.06769417 -0.07068697 0.006693294 0.052029133 -0.013147648 0.04452914
1.4774652e-06 0.028822515 0.045852635 0.07927414 -0.045993205 0.008861076 -0.06229132 -0.028699826
0.017535105 -0.04968544 0.042861197 -0.08989583 0.05346076 0.010482737 0.06411245 -0.08474822

conv2.bias f4 [20]
00000000: 759c 553d f72a 1fbd 3ff4 823c 511c 2fbd
00000010: 2208 0cbd 2d9c c5bd abb6 a93d 6ff7 c2bd
00000020: f969 7ebd c190 0ebd 5a17 663c 4a1a 12bd
00000030: 248d 6f3d ee63 26bc b3d0 bc3d 0b85 ffbd
00000040: b895 8fbd 4369 0fbd c882 293d 50a3 3b3a
0.052151162 -0.038859334 0.015985606 -0.042751614 -0.034187444 -0.09648929 0.08286794 -0.095198505
-0.062112782 -0.034806017 0.014043653 -0.035669602 0.05848421 -0.010155661 0.09219494 -0.12476548
-0.070109785 -0.035012495 0.04138449 0.00071578193

b2.weight f4 [20]
00000000: 8424 713f fb56 733f 9848 6c3f 6310 6d3f
00000010: ac0b 6f3f 7fd8 6f3f cec1 703f c8c7 6b3f
00000020: 2382 6c3f f069 683f 31e9 693f 4b49 6d3f
00000030: c0a8 6c3f 6bb4 733f 02d8 693f 11c8 713f
00000040: be43 6a3f 6be1 6c3f 4c74 713f f4bf 743f
0.94196343 0.95054597 0.9229827 0.9260313 0.93377185 0.9368972 0.9404572 0.92101717
0.9238607 0.9078665 0.91371447 0.9268996 0.9244499 0.9519717 0.91345227 0.944459
0.91509616 0.9253146 0.9431808 0.956054

b2.bias f4 [20]
00000000: 8d53 823c 3c81 6cbc 6c1c 82bb 318d da3c
00000010: 3867 a43c 0842 823c d703 9dba c7ff 803c
00000020: 4a91 f4ba 38c1 c33c bbf3 bd3c 10f8 91bb
00000030: 8405 bdbb 2be1 c93c d5f1 043c 3771 21bc
00000040: a71f dd3c cbfb b03c 172f fdbb 9137 a03c
0.01590898 -0.014435109 -0.0039706733 0.026678653 0.02006875 0.015900627 -0.0011979294 0.015746964
-0.0018659022 0.023895845 0.023187509 -0.00445462 -0.00576848 0.024643501 0.008114298 -0.009853653
0.026992632 0.02160444 -0.007726561 0.019557746

b2.running_mean f4 [20]
00000000: ab3a 843e cc1e ba3e 6f21 8e3e 6dd6 643e
00000010: ea06 3d3e 533e 343e c4c5 af3e ec57 463e
00000020: cfa8 b13e 72f6 583e b7ee 9a3e 1fc8 a63e
00000030: 6d0e b93e b7f6 ab3e c862 cc3e 463f 843e
00000040: 945b 583e 950d 883e da8b be3e ee1b d23e
0.2582601 0.3635162 0.27759883 0.22347422 0.18459669 0.176019 0.3433057 0.19369477
0.34699103 0.21187761 0.3026025 0.32574555 0.36143818 0.33586666 0.39919114 0.25829524
0.21128684 0.26572862 0.37216073 0.41036934

b2.running_var f4 [20]
00000000: 032b 573e 7406 f13d 9f68 813e eed3 323e
00000010: a58a 073e 2264 e83d fd19 553e ddd8 483e
00000020: 1462 0c3f 9fff 843e 979d ad3e 3807 e33e
00000030: bb3d cf3e d616 5c3e d42a 9a3e 0681 ff3e
00000040: 4f4c 763e 9e3e 463e c004 543e 0e1c cd3e
0.21012501 0.11768809 0.25275132 0.17463657 0.13236482 0.11347224 0.20810695 0.19613977
0.54837155 0.25976273 0.33909294 0.44341445 0.40476784 0.21493086 0.301108 0.49903125
0.24052547 0.19359824 0.20704937 0.40060467

fc1.weight f4 [1, 90480]
00000000: 1e16 2e3c a14f 763c 0a5e 763c af80 e638
00000010: 4085 4f3c 85ca bb3b 5b1e 33ba 6dd1 893b
00000020: 559b a23b 0970 b63a e67f cebb df47 23bb
00000030: 03b0 f73b f10e 96bb ffc8 be3b 3b88 bc3a
00000040: fe44 8b3b 0282 003c abcf 453c b9ce 913b
00000050: 8046 df3a 2b18 733c bb79 313c 6fdd 0a3c
00000060: d382 cb3b 7688 233c 8cf5 463c ef59 d53c
00000070: e365 773c 142e e83b 66e4 ca3c 6235 0e3b
00000080: 94a5 823c bd4f 783c 4562 353c 7b39 883c
00000090: 28ae cd39 a79f 6e3b 63c2 f53a 8726 03b9
000000a0: 9914 983a eca2 6abc 5121 4fba ed01 25bc
000000b0: 73f8 23bb 9def 6dba 4802 b5bb 0b8b 9a3b
000000c0: c495 09bb b645 e03b 90c6 80bb 3ebf 05bb
000000d0: 8d3d 8e3c c2a9 403c 2d75 123c 5639 d73b
000000e0: 6e60 b2ba 0a4f 6a3b ac78 4b3c 52cc 593c
000000f0: bc58 073c 90c9 893b e205 613b d63e 903b
00000100: af24 e739 7370 10bc 19c8 e6bb f8de 983a
00000110: 0002 32bc c175 23bc 0354 113c 9fb5 3c3a
00000120: e2fb e93b 5ae8 fd3a acf6 683c 8ffc a53c
00000130: ff6a 333c 2d88 293c dc07 263b a9ce 883c
00000140: 9b7c 213c 3f80 153c eeb4 8a3c 5881 3f3c
00000150: ddc3 463c 6fdb 333c 8d7e 513c a18e 923c
00000160: 27b3 8e3c 4052 7d3c 57f8 9e3c bbc3 c23c
00000170: e0f7 933c 2287 b53c e49c 3b3c 9f26 8dbb
00000180: ed75 6e3b 0653 593b e4a1 06bc ffe6 863b
00000190: 85ce cfbb 5d0a 8abb e368 54b9 6343 1cbb
000001a0: 0250 ee3a bfe0 8b3a 3278 2abc c31b 39bc
000001b0: 6ca2 9abb 422a bfbb a24b a53b 9816 e73a
000001c0: 703d 6f3c 0c2d dd3a cc82 963c cb39 623c
000001d0: 292d ea3b ebb0 183c e954 133b be39 abba
000001e0: 4d4b 6f38 50a1 cf3b 5f6e e53b 7f16 ea3a
000001f0: 215d 64bb 739f e3bb 904c 2c3b 40fa dbbb
00000200: df13 08ba 9ebe e13b 92f5 a43b 532d daba
00000210: dbf9 063b b58a 9f3c b94b da3c d43d 923c
00000220: 869e 453c bbc4 e23b c2c8 293c abdd 933b
00000230: 922e 683b 30f6 483c 877f fb3a bbf7 ab3b
00000240: 9823 a53b 6cf7 bf3b 8b47 863a 241e 893c
00000250: 0b7c 8c3b 7535 843b 123f dbbb 7056 873b
00000260: 8f3b a7bb 68d2 2ebc 8c9d 603c f16a 813c
00000270: 74ff 7f3c 5427 843c 6626 0fbc 14a1 313b
00000280: af76 1fbc da54 6fbb 257a 3b3b af6a 703b
00000290: f561 59bb 2724 883a ca56 4a3b 6d03 8139
000002a0: f4bb e53b 38af 3dbb 291b 0e3b da57 253c
000002b0: 8d81 3b3c 200e 543b 43a5 d53b de44 5a3c
000002c0: 6ac2 33bc 0765 c0ba ccf7 cd3a adc5 7339
000002d0: 0b0a bc3b fb25 0c3b 0033 173c d484 1c3b
000002e0: b0ce 7c3a 3ab4 433c 9bca 003a a1eb d9b9
000002f0: f527 813c 201d e43b 8f34 e33b 3a14 993a
00000300: bd1d 723c b024 a73c a270 8b3c 7f10 523c
00000310: bc1b 773c e218 03bb 8b00 c83b 9362 873c
00000320: 5047 4c3c 38d3 5f3c 3e31 5aba 53ad 3a3c
00000330: 8736 16ba d040 233b b749 ff3b 5daf c5bb
00000340: eba3 003b fc7b 49bc 799c cabb 1f84 34bb
00000350: ee80 353b 6ebf 093c bf60 8c3b cc06 8a3b
00000360: e0f9 a93c 7600 063c 328f 7b3b 6443 84bb
00000370: ec45 4a3c b772 9c3b a931 1a3c 3fb0 51bb
00000380: f149 bb3b 860c 89bb c636 8c3b 866b adbb
00000390: 4e25 33bb e0a6 d6bb 6e94 b23b eba9 b23b
000003a0: 93c8 41ba dcbf 2e39 3a75 9a3a 5428 533c
000003b0: 25bf 743c 14df 5e3a de2c 963b c11d 8f3b
000003c0: 6aef 703b ce0f 2f3c ea42 1c3c a17a 3e3c
000003d0: f728 373c 16f4 8dbb 6e3d dc39 c276 44bb
000003e0: 8e7a 723b 2477 863b 7c36 93ba 10fa b0ba
000003f0: 55cf 443c 3808 8b3c 5ac9 263c fedf c93b
0.01062539 0.015033633 0.015037069 0.00010991224 0.012666047 0.0057309293 -0.00068328314 0.0042058737
0.0049623647 0.0013918887 -0.006301868 -0.0024914665 0.007558824 -0.004579418 0.0058223004 0.0014383862
0.004250168 0.007843496 0.012073438 0.004449692 0.001703456 0.014837305 0.010832245 0.008475645
0.006210664 0.009981265 0.012143504 0.02604386 0.015099975 0.007085571 0.024767112 0.00216993
0.015948094 0.01515573 0.011070793 0.016628971 0.00039230403 0.0036411078 0.0018749948 -0.00012507486
0.0011602818 -0.01432107 -0.0007901388 -0.01007126 -0.0025019913 -0.00090765377 -0.0055239536 0.0047162822
-0.0020993808 0.0068442477 -0.0039299205 -0.0020408179 0.017363334 0.011759223 0.00893907 0.0065681143
-0.001360906 0.0035752677 0.012418907 0.013293343 0.008260902 0.0042049363 0.0034335782 0.004402022
0.00044087085 -0.0088158725 -0.0070428965 0.001166313 -0.010864735 -0.009976805 0.008870128 0.00071986945
0.0071406225 0.0019371614 0.014218967 0.02026203 0.010950803 0.010347408 0.0025334274 0.016700106
0.009856368 0.0091248145 0.016931977 0.011688553 0.012131658 0.01097761 0.01278652 0.017890276
0.01741941 0.015461504 0.019405527 0.023774972 0.018062532 0.022159163 0.01145098 -0.0043075825
0.0036386207 0.0033161058 -0.008217309 0.0041168923 -0.0063417577 -0.004212661 -0.00020256969 -0.0023843877
0.0018181803 0.0010671838 -0.010404633 -0.011298123 -0.004719069 -0.005833895 0.0050444165 0.0017630635
0.01460205 0.0016874387 0.018372916 0.013807724 0.007146497 0.009319524 0.002248103 -0.0013063473
5.705217e-05 0.0063363686 0.0070016827 0.0017859488 -0.0034845548 -0.006946498 0.0026290752 -0.0067131817
-0.00051909493 0.0068891784 0.005034157 -0.0016645588 0.0020595703 0.01947532 0.026647436 0.017851748
0.012061721 0.0069204248 0.010362806 0.004512509 0.0035428149 0.012265727 0.0019187786 0.0052480376
0.0050396435 0.0058583524 0.001024471 0.016738005 0.004287248 0.004034693 -0.006690868 0.004130177
-0.0051035355 -0.010670282 0.013709437 0.015798064 0.01562487 0.016132034 -0.008737182 0.0027104067
-0.009732886 -0.0036519081 0.002860674 0.0036684682 -0.003316996 0.0010386751 0.0030874484 0.0002460735
0.007010931 -0.002894355 0.002168367 0.010091746 0.0114444615 0.0032357052 0.006519945 0.013322083
-0.010971645 -0.0014678546 0.0015714108 0.00023247926 0.005738502 0.0021384943 0.009228468 0.0023882883
0.0009643836 0.011944825 0.0004913003 -0.00041565023 0.015766123 0.00696148 0.0069337557 0.0011679002
0.014777598 0.020403236 0.017021481 0.012821316 0.015082296 -0.0020003845 0.0061035804 0.016526496
0.012468174 0.013661198 -0.00083233777 0.011393863 -0.0005730171 0.0024910457 0.00779077 -0.006032868
0.0019628953 -0.012297627 -0.006183204 -0.002754457 0.0027695256 0.008407457 0.004283994 0.004212236
0.020749032 0.008178821 0.0038384912 -0.004036354 0.012345772 0.0047744173 0.009411254 -0.003199592
0.0057156016 -0.004182401 0.0042789904 -0.005292359 -0.0027335468 -0.006550655 0.005449823 0.0054523847
-0.00073922536 0.00016665406 0.0011784204 0.012888033 0.0149381505 0.0008501869 0.0045829853 0.0043675606
0.0036763796 0.0106849205 0.009537438 0.011625917 0.0111792 -0.004332076 0.0004200744 -0.0029978012
0.0036999318 0.004103558 -0.0011231448 -0.0013502259 0.012012322 0.016971692 0.010179842 0.006160735
